…
diff --git a/QCRL_v0.1/pdqn_exchange_cnot/log/evaluator/evaluator_logger.txt b/QCRL_v0.1/pdqn_exchange_cnot/log/evaluator/evaluator_logger.txt
deleted file mode 100644
index e69de29..0000000
diff --git a/QCRL_v0.1/pdqn_exchange_cnot/log/learner/learner_logger.txt b/QCRL_v0.1/pdqn_exchange_cnot/log/learner/learner_logger.txt
deleted file mode 100644
index c43d174..0000000
--- a/QCRL_v0.1/pdqn_exchange_cnot/log/learner/learner_logger.txt
+++ /dev/null
@@ -1,93 +0,0 @@
-[2025-06-01 03:44:43][base_learner.py:360][INFO] [RANK0]: DI-engine DRL Policy
-PDQN(
-  (dis_encoder): FCEncoder(
-    (act): ReLU()
-    (init): Linear(in_features=163, out_features=128, bias=True)
-    (main): Sequential(
-      (0): Linear(in_features=128, out_features=128, bias=True)
-      (1): ReLU()
-      (2): Linear(in_features=128, out_features=64, bias=True)
-      (3): ReLU()
-    )
-  )
-  (cont_encoder): FCEncoder(
-    (act): ReLU()
-    (init): Linear(in_features=163, out_features=128, bias=True)
-    (main): Sequential(
-      (0): Linear(in_features=128, out_features=128, bias=True)
-      (1): ReLU()
-      (2): Linear(in_features=128, out_features=64, bias=True)
-      (3): ReLU()
-    )
-  )
-  (cont_head): RegressionHead(
-    (main): Sequential(
-      (0): Linear(in_features=64, out_features=64, bias=True)
-      (1): ReLU()
-    )
-    (last): Linear(in_features=64, out_features=1, bias=True)
-    (tanh): Tanh()
-  )
-  (dis_head): DuelingHead(
-    (A): Sequential(
-      (0): Sequential(
-        (0): Linear(in_features=65, out_features=65, bias=True)
-        (1): ReLU()
-      )
-      (1): Sequential(
-        (0): Linear(in_features=65, out_features=5, bias=True)
-      )
-    )
-    (V): Sequential(
-      (0): Sequential(
-        (0): Linear(in_features=65, out_features=65, bias=True)
-        (1): ReLU()
-      )
-      (1): Sequential(
-        (0): Linear(in_features=65, out_features=1, bias=True)
-      )
-    )
-  )
-  (actor_head): ModuleList(
-    (0): DuelingHead(
-      (A): Sequential(
-        (0): Sequential(
-          (0): Linear(in_features=65, out_features=65, bias=True)
-          (1): ReLU()
-        )
-        (1): Sequential(
-          (0): Linear(in_features=65, out_features=5, bias=True)
-        )
-      )
-      (V): Sequential(
-        (0): Sequential(
-          (0): Linear(in_features=65, out_features=65, bias=True)
-          (1): ReLU()
-        )
-        (1): Sequential(
-          (0): Linear(in_features=65, out_features=1, bias=True)
-        )
-      )
-    )
-    (1): RegressionHead(
-      (main): Sequential(
-        (0): Linear(in_features=64, out_features=64, bias=True)
-        (1): ReLU()
-      )
-      (last): Linear(in_features=64, out_features=1, bias=True)
-      (tanh): Tanh()
-    )
-  )
-  (encoder): ModuleList(
-    (0-1): 2 x FCEncoder(
-      (act): ReLU()
-      (init): Linear(in_features=163, out_features=128, bias=True)
-      (main): Sequential(
-        (0): Linear(in_features=128, out_features=128, bias=True)
-        (1): ReLU()
-        (2): Linear(in_features=128, out_features=64, bias=True)
-        (3): ReLU()
-      )
-    )
-  )
-)
diff --git a/QCRL_v0.1/pdqn_exchange_cnot/log/serial/events.out.tfevents.1748774683.Kyoka-Suigetsu b/QCRL_v0.1/pdqn_exchange_cnot/log/serial/events.out.tfevents.1748774683.Kyoka-Suigetsu
deleted file mode 100644
index b9df7d2..0000000
Binary files a/QCRL_v0.1/pdqn_exchange_cnot/log/serial/events.out.tfevents.1748774683.Kyoka-Suigetsu and /dev/null differ
…
diff --git a/QCRL_v0.1/pdqn_exchange_cnot_250601_161239/log/evaluator/evaluator_logger.txt b/QCRL_v0.1/pdqn_exchange_cnot_250601_161239/log/evaluator/evaluator_logger.txt
deleted file mode 100644
index e69de29..0000000
diff --git a/QCRL_v0.1/pdqn_exchange_cnot_250601_161239/log/learner/learner_logger.txt b/QCRL_v0.1/pdqn_exchange_cnot_250601_161239/log/learner/learner_logger.txt
deleted file mode 100644
index 30a2d2e..0000000
--- a/QCRL_v0.1/pdqn_exchange_cnot_250601_161239/log/learner/learner_logger.txt
+++ /dev/null
@@ -1,186 +0,0 @@
-[2025-06-01 16:12:42][base_learner.py:360][INFO] [RANK0]: DI-engine DRL Policy
-PDQN(
-  (dis_encoder): FCEncoder(
-    (act): ReLU()
-    (init): Linear(in_features=163, out_features=128, bias=True)
-    (main): Sequential(
-      (0): Linear(in_features=128, out_features=128, bias=True)
-      (1): ReLU()
-      (2): Linear(in_features=128, out_features=64, bias=True)
-      (3): ReLU()
-    )
-  )
-  (cont_encoder): FCEncoder(
-    (act): ReLU()
-    (init): Linear(in_features=163, out_features=128, bias=True)
-    (main): Sequential(
-      (0): Linear(in_features=128, out_features=128, bias=True)
-      (1): ReLU()
-      (2): Linear(in_features=128, out_features=64, bias=True)
-      (3): ReLU()
-    )
-  )
-  (cont_head): RegressionHead(
-    (main): Sequential(
-      (0): Linear(in_features=64, out_features=64, bias=True)
-      (1): ReLU()
-    )
-    (last): Linear(in_features=64, out_features=1, bias=True)
-    (tanh): Tanh()
-  )
-  (dis_head): DuelingHead(
-    (A): Sequential(
-      (0): Sequential(
-        (0): Linear(in_features=65, out_features=65, bias=True)
-        (1): ReLU()
-      )
-      (1): Sequential(
-        (0): Linear(in_features=65, out_features=5, bias=True)
-      )
-    )
-    (V): Sequential(
-      (0): Sequential(
-        (0): Linear(in_features=65, out_features=65, bias=True)
-        (1): ReLU()
-      )
-      (1): Sequential(
-        (0): Linear(in_features=65, out_features=1, bias=True)
-      )
-    )
-  )
-  (actor_head): ModuleList(
-    (0): DuelingHead(
-      (A): Sequential(
-        (0): Sequential(
-          (0): Linear(in_features=65, out_features=65, bias=True)
-          (1): ReLU()
-        )
-        (1): Sequential(
-          (0): Linear(in_features=65, out_features=5, bias=True)
-        )
-      )
-      (V): Sequential(
-        (0): Sequential(
-          (0): Linear(in_features=65, out_features=65, bias=True)
-          (1): ReLU()
-        )
-        (1): Sequential(
-          (0): Linear(in_features=65, out_features=1, bias=True)
-        )
-      )
-    )
-    (1): RegressionHead(
-      (main): Sequential(
-        (0): Linear(in_features=64, out_features=64, bias=True)
-        (1): ReLU()
-      )
-      (last): Linear(in_features=64, out_features=1, bias=True)
-      (tanh): Tanh()
-    )
-  )
-  (encoder): ModuleList(
-    (0-1): 2 x FCEncoder(
-      (act): ReLU()
-      (init): Linear(in_features=163, out_features=128, bias=True)
-      (main): Sequential(
-        (0): Linear(in_features=128, out_features=128, bias=True)
-        (1): ReLU()
-        (2): Linear(in_features=128, out_features=64, bias=True)
-        (3): ReLU()
-      )
-    )
-  )
-)
-[2025-06-01 16:13:15][base_learner.py:360][INFO] [RANK0]: DI-engine DRL Policy
-PDQN(
-  (dis_encoder): FCEncoder(
-    (act): ReLU()
-    (init): Linear(in_features=168, out_features=128, bias=True)
-    (main): Sequential(
-      (0): Linear(in_features=128, out_features=128, bias=True)
-      (1): ReLU()
-      (2): Linear(in_features=128, out_features=64, bias=True)
-      (3): ReLU()
-    )
-  )
-  (cont_encoder): FCEncoder(
-    (act): ReLU()
-    (init): Linear(in_features=168, out_features=128, bias=True)
-    (main): Sequential(
-      (0): Linear(in_features=128, out_features=128, bias=True)
-      (1): ReLU()
-      (2): Linear(in_features=128, out_features=64, bias=True)
-      (3): ReLU()
-    )
-  )
-  (cont_head): RegressionHead(
-    (main): Sequential(
-      (0): Linear(in_features=64, out_features=64, bias=True)
-      (1): ReLU()
-    )
-    (last): Linear(in_features=64, out_features=1, bias=True)
-    (tanh): Tanh()
-  )
-  (dis_head): DuelingHead(
-    (A): Sequential(
-      (0): Sequential(
-        (0): Linear(in_features=65, out_features=65, bias=True)
-        (1): ReLU()
-      )
-      (1): Sequential(
-        (0): Linear(in_features=65, out_features=5, bias=True)
-      )
-    )
-    (V): Sequential(
-      (0): Sequential(
-        (0): Linear(in_features=65, out_features=65, bias=True)
-        (1): ReLU()
-      )
-      (1): Sequential(
-        (0): Linear(in_features=65, out_features=1, bias=True)
-      )
-    )
-  )
-  (actor_head): ModuleList(
-    (0): DuelingHead(
-      (A): Sequential(
-        (0): Sequential(
-          (0): Linear(in_features=65, out_features=65, bias=True)
-          (1): ReLU()
-        )
-        (1): Sequential(
-          (0): Linear(in_features=65, out_features=5, bias=True)
-        )
-      )
-      (V): Sequential(
-        (0): Sequential(
-          (0): Linear(in_features=65, out_features=65, bias=True)
-          (1): ReLU()
-        )
-        (1): Sequential(
-          (0): Linear(in_features=65, out_features=1, bias=True)
-        )
-      )
-    )
-    (1): RegressionHead(
-      (main): Sequential(
-        (0): Linear(in_features=64, out_features=64, bias=True)
-        (1): ReLU()
-      )
-      (last): Linear(in_features=64, out_features=1, bias=True)
-      (tanh): Tanh()
-    )
-  )
-  (encoder): ModuleList(
-    (0-1): 2 x FCEncoder(
-      (act): ReLU()
-      (init): Linear(in_features=168, out_features=128, bias=True)
-      (main): Sequential(
-        (0): Linear(in_features=128, out_features=128, bias=True)
-        (1): ReLU()
-        (2): Linear(in_features=128, out_features=64, bias=True)
-        (3): ReLU()
-      )
-    )
-  )
-)
diff --git a/QCRL_v0.1/pdqn_exchange_cnot_250601_161239/log/serial/events.out.tfevents.1748819562.Kyoka-Suigetsu b/QCRL_v0.1/pdqn_exchange_cnot_250601_161239/log/serial/events.out.tfevents.1748819562.Kyoka-Suigetsu
deleted file mode 100644
index dc6859c..0000000
Binary files a/QCRL_v0.1/pdqn_exchange_cnot_250601_161239/log/serial/events.out.tfevents.1748819562.Kyoka-Suigetsu and /dev/null differ
…
diff --git a/QCRL_v0.1/pdqn_exchange_cnot_250601_161314/log/evaluator/evaluator_logger.txt b/QCRL_v0.1/pdqn_exchange_cnot_250601_161314/log/evaluator/evaluator_logger.txt
deleted file mode 100644
index e69de29..0000000
diff --git a/QCRL_v0.1/pdqn_exchange_cnot_250601_161314/log/learner/learner_logger.txt b/QCRL_v0.1/pdqn_exchange_cnot_250601_161314/log/learner/learner_logger.txt
deleted file mode 100644
index 51cfdb6..0000000
--- a/QCRL_v0.1/pdqn_exchange_cnot_250601_161314/log/learner/learner_logger.txt
+++ /dev/null
@@ -1,93 +0,0 @@
-[2025-06-01 16:13:15][base_learner.py:360][INFO] [RANK0]: DI-engine DRL Policy
-PDQN(
-  (dis_encoder): FCEncoder(
-    (act): ReLU()
-    (init): Linear(in_features=168, out_features=128, bias=True)
-    (main): Sequential(
-      (0): Linear(in_features=128, out_features=128, bias=True)
-      (1): ReLU()
-      (2): Linear(in_features=128, out_features=64, bias=True)
-      (3): ReLU()
-    )
-  )
-  (cont_encoder): FCEncoder(
-    (act): ReLU()
-    (init): Linear(in_features=168, out_features=128, bias=True)
-    (main): Sequential(
-      (0): Linear(in_features=128, out_features=128, bias=True)
-      (1): ReLU()
-      (2): Linear(in_features=128, out_features=64, bias=True)
-      (3): ReLU()
-    )
-  )
-  (cont_head): RegressionHead(
-    (main): Sequential(
-      (0): Linear(in_features=64, out_features=64, bias=True)
-      (1): ReLU()
-    )
-    (last): Linear(in_features=64, out_features=1, bias=True)
-    (tanh): Tanh()
-  )
-  (dis_head): DuelingHead(
-    (A): Sequential(
-      (0): Sequential(
-        (0): Linear(in_features=65, out_features=65, bias=True)
-        (1): ReLU()
-      )
-      (1): Sequential(
-        (0): Linear(in_features=65, out_features=5, bias=True)
-      )
-    )
-    (V): Sequential(
-      (0): Sequential(
-        (0): Linear(in_features=65, out_features=65, bias=True)
-        (1): ReLU()
-      )
-      (1): Sequential(
-        (0): Linear(in_features=65, out_features=1, bias=True)
-      )
-    )
-  )
-  (actor_head): ModuleList(
-    (0): DuelingHead(
-      (A): Sequential(
-        (0): Sequential(
-          (0): Linear(in_features=65, out_features=65, bias=True)
-          (1): ReLU()
-        )
-        (1): Sequential(
-          (0): Linear(in_features=65, out_features=5, bias=True)
-        )
-      )
-      (V): Sequential(
-        (0): Sequential(
-          (0): Linear(in_features=65, out_features=65, bias=True)
-          (1): ReLU()
-        )
-        (1): Sequential(
-          (0): Linear(in_features=65, out_features=1, bias=True)
-        )
-      )
-    )
-    (1): RegressionHead(
-      (main): Sequential(
-        (0): Linear(in_features=64, out_features=64, bias=True)
-        (1): ReLU()
-      )
-      (last): Linear(in_features=64, out_features=1, bias=True)
-      (tanh): Tanh()
-    )
-  )
-  (encoder): ModuleList(
-    (0-1): 2 x FCEncoder(
-      (act): ReLU()
-      (init): Linear(in_features=168, out_features=128, bias=True)
-      (main): Sequential(
-        (0): Linear(in_features=128, out_features=128, bias=True)
-        (1): ReLU()
-        (2): Linear(in_features=128, out_features=64, bias=True)
-        (3): ReLU()
-      )
-    )
-  )
-)
diff --git a/QCRL_v0.1/pdqn_exchange_cnot_250601_161314/log/serial/events.out.tfevents.1748819595.Kyoka-Suigetsu b/QCRL_v0.1/pdqn_exchange_cnot_250601_161314/log/serial/events.out.tfevents.1748819595.Kyoka-Suigetsu
deleted file mode 100644
index 7d8138d..0000000
Binary files a/QCRL_v0.1/pdqn_exchange_cnot_250601_161314/log/serial/events.out.tfevents.1748819595.Kyoka-Suigetsu and /dev/null differ
…
